生成数据列表完成！
---------------------------------------------------------------------------
 Layer (type)       Input Shape          Output Shape         Param #    
===========================================================================
   Conv2D-1      [[1, 3, 224, 224]]    [1, 96, 54, 54]        34,944     
  MaxPool2D-1    [[1, 96, 54, 54]]     [1, 96, 26, 26]           0       
   Conv2D-2      [[1, 96, 26, 26]]     [1, 256, 26, 26]       614,656    
  MaxPool2D-2    [[1, 256, 26, 26]]    [1, 256, 12, 12]          0       
 BatchNorm2D-1   [[1, 256, 12, 12]]    [1, 256, 12, 12]        1,024     
    ReLU-1       [[1, 256, 12, 12]]    [1, 256, 12, 12]          0       
   Conv2D-3      [[1, 256, 12, 12]]    [1, 384, 12, 12]       885,120    
   Conv2D-4      [[1, 384, 12, 12]]    [1, 384, 12, 12]      1,327,488   
   Conv2D-5      [[1, 384, 12, 12]]    [1, 256, 12, 12]       884,992    
  MaxPool2D-3    [[1, 256, 12, 12]]     [1, 256, 5, 5]           0       
 BatchNorm2D-2    [[1, 256, 5, 5]]      [1, 256, 5, 5]         1,024     
    ReLU-2        [[1, 256, 5, 5]]      [1, 256, 5, 5]           0       
   Flatten-1      [[1, 256, 5, 5]]        [1, 6400]              0       
   Linear-1         [[1, 6400]]           [1, 1024]          6,554,624   
   Dropout-1        [[1, 1024]]           [1, 1024]              0       
    ReLU-3          [[1, 1024]]           [1, 1024]              0       
   Linear-2         [[1, 1024]]            [1, 256]           262,400    
   Dropout-2         [[1, 256]]            [1, 256]              0       
    ReLU-4           [[1, 256]]            [1, 256]              0       
   Linear-3          [[1, 256]]             [1, 5]             1,285     
===========================================================================
Total params: 10,567,557
Trainable params: 10,565,509
Non-trainable params: 2,048
---------------------------------------------------------------------------
Input size (MB): 0.57
Forward/backward pass size (MB): 6.14
Params size (MB): 40.31
Estimated Total Size (MB): 47.03
---------------------------------------------------------------------------
…
