生成数据列表完成！
---------------------------------------------------------------------------
 Layer (type)       Input Shape          Output Shape         Param #    
===========================================================================
   Conv2D-1      [[1, 3, 224, 224]]   [1, 64, 224, 224]        1,728     
    ReLU-1      [[1, 64, 224, 224]]   [1, 64, 224, 224]          0       
   Conv2D-2     [[1, 64, 224, 224]]   [1, 64, 224, 224]       36,864     
  MaxPool2D-1   [[1, 64, 224, 224]]   [1, 64, 112, 112]          0       
  ConvBlock-1    [[1, 3, 224, 224]]   [1, 64, 112, 112]          0       
   Conv2D-3     [[1, 64, 112, 112]]   [1, 128, 112, 112]      73,728     
    ReLU-2      [[1, 128, 112, 112]]  [1, 128, 112, 112]         0       
   Conv2D-4     [[1, 128, 112, 112]]  [1, 128, 112, 112]      147,456    
  MaxPool2D-2   [[1, 128, 112, 112]]   [1, 128, 56, 56]          0       
  ConvBlock-2   [[1, 64, 112, 112]]    [1, 128, 56, 56]          0       
   Conv2D-5      [[1, 128, 56, 56]]    [1, 256, 56, 56]       294,912    
    ReLU-3       [[1, 256, 56, 56]]    [1, 256, 56, 56]          0       
   Conv2D-6      [[1, 256, 56, 56]]    [1, 256, 56, 56]       589,824    
   Conv2D-7      [[1, 256, 56, 56]]    [1, 256, 56, 56]       589,824    
   Conv2D-8      [[1, 256, 56, 56]]    [1, 256, 56, 56]       589,824    
  MaxPool2D-3    [[1, 256, 56, 56]]    [1, 256, 28, 28]          0       
  ConvBlock-3    [[1, 128, 56, 56]]    [1, 256, 28, 28]          0       
   Conv2D-9      [[1, 256, 28, 28]]    [1, 512, 28, 28]      1,179,648   
    ReLU-4       [[1, 512, 28, 28]]    [1, 512, 28, 28]          0       
   Conv2D-10     [[1, 512, 28, 28]]    [1, 512, 28, 28]      2,359,296   
   Conv2D-11     [[1, 512, 28, 28]]    [1, 512, 28, 28]      2,359,296   
   Conv2D-12     [[1, 512, 28, 28]]    [1, 512, 28, 28]      2,359,296   
  MaxPool2D-4    [[1, 512, 28, 28]]    [1, 512, 14, 14]          0       
  ConvBlock-4    [[1, 256, 28, 28]]    [1, 512, 14, 14]          0       
   Conv2D-13     [[1, 512, 14, 14]]    [1, 512, 14, 14]      2,359,296   
    ReLU-5       [[1, 512, 14, 14]]    [1, 512, 14, 14]          0       
   Conv2D-14     [[1, 512, 14, 14]]    [1, 512, 14, 14]      2,359,296   
   Conv2D-15     [[1, 512, 14, 14]]    [1, 512, 14, 14]      2,359,296   
   Conv2D-16     [[1, 512, 14, 14]]    [1, 512, 14, 14]      2,359,296   
  MaxPool2D-5    [[1, 512, 14, 14]]     [1, 512, 7, 7]           0       
  ConvBlock-5    [[1, 512, 14, 14]]     [1, 512, 7, 7]           0       
   Flatten-1      [[1, 512, 7, 7]]        [1, 25088]             0       
   Linear-1         [[1, 25088]]          [1, 4096]         102,764,544  
    ReLU-6          [[1, 4096]]           [1, 4096]              0       
   Dropout-1        [[1, 4096]]           [1, 4096]              0       
   Linear-2         [[1, 4096]]           [1, 4096]         16,781,312   
   Linear-3         [[1, 4096]]             [1, 5]            20,485     
===========================================================================
Total params: 139,585,221
Trainable params: 119,566,341
Non-trainable params: 20,018,880
---------------------------------------------------------------------------
Input size (MB): 0.57
Forward/backward pass size (MB): 183.68
Params size (MB): 532.48
Estimated Total Size (MB): 716.73
---------------------------------------------------------------------------
…
