生成数据列表完成！
-------------------------------------------------------------------------------
   Layer (type)         Input Shape          Output Shape         Param #    
===============================================================================
     Conv2D-1        [[1, 3, 224, 224]]   [1, 64, 112, 112]        9,408     
   BatchNorm2D-1    [[1, 64, 112, 112]]   [1, 64, 112, 112]         256      
      ReLU-1        [[1, 64, 112, 112]]   [1, 64, 112, 112]          0       
    MaxPool2D-1     [[1, 64, 112, 112]]    [1, 64, 56, 56]           0       
     Conv2D-3        [[1, 64, 56, 56]]     [1, 64, 56, 56]         4,096     
   BatchNorm2D-3     [[1, 64, 56, 56]]     [1, 64, 56, 56]          256      
      ReLU-2         [[1, 256, 56, 56]]    [1, 256, 56, 56]          0       
     Conv2D-4        [[1, 64, 56, 56]]     [1, 64, 56, 56]        36,864     
   BatchNorm2D-4     [[1, 64, 56, 56]]     [1, 64, 56, 56]          256      
     Conv2D-5        [[1, 64, 56, 56]]     [1, 256, 56, 56]       16,384     
   BatchNorm2D-5     [[1, 256, 56, 56]]    [1, 256, 56, 56]        1,024     
     Conv2D-2        [[1, 64, 56, 56]]     [1, 256, 56, 56]       16,384     
   BatchNorm2D-2     [[1, 256, 56, 56]]    [1, 256, 56, 56]        1,024     
 BottleneckBlock-1   [[1, 64, 56, 56]]     [1, 256, 56, 56]          0       
     Conv2D-6        [[1, 256, 56, 56]]    [1, 64, 56, 56]        16,384     
   BatchNorm2D-6     [[1, 64, 56, 56]]     [1, 64, 56, 56]          256      
      ReLU-3         [[1, 256, 56, 56]]    [1, 256, 56, 56]          0       
     Conv2D-7        [[1, 64, 56, 56]]     [1, 64, 56, 56]        36,864     
   BatchNorm2D-7     [[1, 64, 56, 56]]     [1, 64, 56, 56]          256      
     Conv2D-8        [[1, 64, 56, 56]]     [1, 256, 56, 56]       16,384     
   BatchNorm2D-8     [[1, 256, 56, 56]]    [1, 256, 56, 56]        1,024     
 BottleneckBlock-2   [[1, 256, 56, 56]]    [1, 256, 56, 56]          0       
     Conv2D-9        [[1, 256, 56, 56]]    [1, 64, 56, 56]        16,384     
   BatchNorm2D-9     [[1, 64, 56, 56]]     [1, 64, 56, 56]          256      
      ReLU-4         [[1, 256, 56, 56]]    [1, 256, 56, 56]          0       
     Conv2D-10       [[1, 64, 56, 56]]     [1, 64, 56, 56]        36,864     
  BatchNorm2D-10     [[1, 64, 56, 56]]     [1, 64, 56, 56]          256      
     Conv2D-11       [[1, 64, 56, 56]]     [1, 256, 56, 56]       16,384     
  BatchNorm2D-11     [[1, 256, 56, 56]]    [1, 256, 56, 56]        1,024     
 BottleneckBlock-3   [[1, 256, 56, 56]]    [1, 256, 56, 56]          0       
     Conv2D-13       [[1, 256, 56, 56]]    [1, 128, 56, 56]       32,768     
  BatchNorm2D-13     [[1, 128, 56, 56]]    [1, 128, 56, 56]         512      
      ReLU-5         [[1, 512, 28, 28]]    [1, 512, 28, 28]          0       
     Conv2D-14       [[1, 128, 56, 56]]    [1, 128, 28, 28]       147,456    
  BatchNorm2D-14     [[1, 128, 28, 28]]    [1, 128, 28, 28]         512      
     Conv2D-15       [[1, 128, 28, 28]]    [1, 512, 28, 28]       65,536     
  BatchNorm2D-15     [[1, 512, 28, 28]]    [1, 512, 28, 28]        2,048     
     Conv2D-12       [[1, 256, 56, 56]]    [1, 512, 28, 28]       131,072    
  BatchNorm2D-12     [[1, 512, 28, 28]]    [1, 512, 28, 28]        2,048     
 BottleneckBlock-4   [[1, 256, 56, 56]]    [1, 512, 28, 28]          0       
     Conv2D-16       [[1, 512, 28, 28]]    [1, 128, 28, 28]       65,536     
  BatchNorm2D-16     [[1, 128, 28, 28]]    [1, 128, 28, 28]         512      
      ReLU-6         [[1, 512, 28, 28]]    [1, 512, 28, 28]          0       
     Conv2D-17       [[1, 128, 28, 28]]    [1, 128, 28, 28]       147,456    
  BatchNorm2D-17     [[1, 128, 28, 28]]    [1, 128, 28, 28]         512      
     Conv2D-18       [[1, 128, 28, 28]]    [1, 512, 28, 28]       65,536     
  BatchNorm2D-18     [[1, 512, 28, 28]]    [1, 512, 28, 28]        2,048     
 BottleneckBlock-5   [[1, 512, 28, 28]]    [1, 512, 28, 28]          0       
     Conv2D-19       [[1, 512, 28, 28]]    [1, 128, 28, 28]       65,536     
  BatchNorm2D-19     [[1, 128, 28, 28]]    [1, 128, 28, 28]         512      
      ReLU-7         [[1, 512, 28, 28]]    [1, 512, 28, 28]          0       
     Conv2D-20       [[1, 128, 28, 28]]    [1, 128, 28, 28]       147,456    
  BatchNorm2D-20     [[1, 128, 28, 28]]    [1, 128, 28, 28]         512      
     Conv2D-21       [[1, 128, 28, 28]]    [1, 512, 28, 28]       65,536     
  BatchNorm2D-21     [[1, 512, 28, 28]]    [1, 512, 28, 28]        2,048     
 BottleneckBlock-6   [[1, 512, 28, 28]]    [1, 512, 28, 28]          0       
     Conv2D-22       [[1, 512, 28, 28]]    [1, 128, 28, 28]       65,536     
  BatchNorm2D-22     [[1, 128, 28, 28]]    [1, 128, 28, 28]         512      
      ReLU-8         [[1, 512, 28, 28]]    [1, 512, 28, 28]          0       
     Conv2D-23       [[1, 128, 28, 28]]    [1, 128, 28, 28]       147,456    
  BatchNorm2D-23     [[1, 128, 28, 28]]    [1, 128, 28, 28]         512      
     Conv2D-24       [[1, 128, 28, 28]]    [1, 512, 28, 28]       65,536     
  BatchNorm2D-24     [[1, 512, 28, 28]]    [1, 512, 28, 28]        2,048     
 BottleneckBlock-7   [[1, 512, 28, 28]]    [1, 512, 28, 28]          0       
     Conv2D-26       [[1, 512, 28, 28]]    [1, 256, 28, 28]       131,072    
  BatchNorm2D-26     [[1, 256, 28, 28]]    [1, 256, 28, 28]        1,024     
      ReLU-9        [[1, 1024, 14, 14]]   [1, 1024, 14, 14]          0       
     Conv2D-27       [[1, 256, 28, 28]]    [1, 256, 14, 14]       589,824    
  BatchNorm2D-27     [[1, 256, 14, 14]]    [1, 256, 14, 14]        1,024     
     Conv2D-28       [[1, 256, 14, 14]]   [1, 1024, 14, 14]       262,144    
  BatchNorm2D-28    [[1, 1024, 14, 14]]   [1, 1024, 14, 14]        4,096     
     Conv2D-25       [[1, 512, 28, 28]]   [1, 1024, 14, 14]       524,288    
  BatchNorm2D-25    [[1, 1024, 14, 14]]   [1, 1024, 14, 14]        4,096     
 BottleneckBlock-8   [[1, 512, 28, 28]]   [1, 1024, 14, 14]          0       
     Conv2D-29      [[1, 1024, 14, 14]]    [1, 256, 14, 14]       262,144    
  BatchNorm2D-29     [[1, 256, 14, 14]]    [1, 256, 14, 14]        1,024     
      ReLU-10       [[1, 1024, 14, 14]]   [1, 1024, 14, 14]          0       
     Conv2D-30       [[1, 256, 14, 14]]    [1, 256, 14, 14]       589,824    
  BatchNorm2D-30     [[1, 256, 14, 14]]    [1, 256, 14, 14]        1,024     
     Conv2D-31       [[1, 256, 14, 14]]   [1, 1024, 14, 14]       262,144    
  BatchNorm2D-31    [[1, 1024, 14, 14]]   [1, 1024, 14, 14]        4,096     
 BottleneckBlock-9  [[1, 1024, 14, 14]]   [1, 1024, 14, 14]          0       
     Conv2D-32      [[1, 1024, 14, 14]]    [1, 256, 14, 14]       262,144    
  BatchNorm2D-32     [[1, 256, 14, 14]]    [1, 256, 14, 14]        1,024     
      ReLU-11       [[1, 1024, 14, 14]]   [1, 1024, 14, 14]          0       
     Conv2D-33       [[1, 256, 14, 14]]    [1, 256, 14, 14]       589,824    
  BatchNorm2D-33     [[1, 256, 14, 14]]    [1, 256, 14, 14]        1,024     
     Conv2D-34       [[1, 256, 14, 14]]   [1, 1024, 14, 14]       262,144    
  BatchNorm2D-34    [[1, 1024, 14, 14]]   [1, 1024, 14, 14]        4,096     
BottleneckBlock-10  [[1, 1024, 14, 14]]   [1, 1024, 14, 14]          0       
     Conv2D-35      [[1, 1024, 14, 14]]    [1, 256, 14, 14]       262,144    
  BatchNorm2D-35     [[1, 256, 14, 14]]    [1, 256, 14, 14]        1,024     
      ReLU-12       [[1, 1024, 14, 14]]   [1, 1024, 14, 14]          0       
     Conv2D-36       [[1, 256, 14, 14]]    [1, 256, 14, 14]       589,824    
  BatchNorm2D-36     [[1, 256, 14, 14]]    [1, 256, 14, 14]        1,024     
     Conv2D-37       [[1, 256, 14, 14]]   [1, 1024, 14, 14]       262,144    
  BatchNorm2D-37    [[1, 1024, 14, 14]]   [1, 1024, 14, 14]        4,096     
BottleneckBlock-11  [[1, 1024, 14, 14]]   [1, 1024, 14, 14]          0       
     Conv2D-38      [[1, 1024, 14, 14]]    [1, 256, 14, 14]       262,144    
  BatchNorm2D-38     [[1, 256, 14, 14]]    [1, 256, 14, 14]        1,024     
      ReLU-13       [[1, 1024, 14, 14]]   [1, 1024, 14, 14]          0       
     Conv2D-39       [[1, 256, 14, 14]]    [1, 256, 14, 14]       589,824    
  BatchNorm2D-39     [[1, 256, 14, 14]]    [1, 256, 14, 14]        1,024     
     Conv2D-40       [[1, 256, 14, 14]]   [1, 1024, 14, 14]       262,144    
  BatchNorm2D-40    [[1, 1024, 14, 14]]   [1, 1024, 14, 14]        4,096     
BottleneckBlock-12  [[1, 1024, 14, 14]]   [1, 1024, 14, 14]          0       
     Conv2D-41      [[1, 1024, 14, 14]]    [1, 256, 14, 14]       262,144    
  BatchNorm2D-41     [[1, 256, 14, 14]]    [1, 256, 14, 14]        1,024     
      ReLU-14       [[1, 1024, 14, 14]]   [1, 1024, 14, 14]          0       
     Conv2D-42       [[1, 256, 14, 14]]    [1, 256, 14, 14]       589,824    
  BatchNorm2D-42     [[1, 256, 14, 14]]    [1, 256, 14, 14]        1,024     
     Conv2D-43       [[1, 256, 14, 14]]   [1, 1024, 14, 14]       262,144    
  BatchNorm2D-43    [[1, 1024, 14, 14]]   [1, 1024, 14, 14]        4,096     
BottleneckBlock-13  [[1, 1024, 14, 14]]   [1, 1024, 14, 14]          0       
     Conv2D-45      [[1, 1024, 14, 14]]    [1, 512, 14, 14]       524,288    
  BatchNorm2D-45     [[1, 512, 14, 14]]    [1, 512, 14, 14]        2,048     
      ReLU-15        [[1, 2048, 7, 7]]     [1, 2048, 7, 7]           0       
     Conv2D-46       [[1, 512, 14, 14]]     [1, 512, 7, 7]       2,359,296   
  BatchNorm2D-46      [[1, 512, 7, 7]]      [1, 512, 7, 7]         2,048     
     Conv2D-47        [[1, 512, 7, 7]]     [1, 2048, 7, 7]       1,048,576   
  BatchNorm2D-47     [[1, 2048, 7, 7]]     [1, 2048, 7, 7]         8,192     
     Conv2D-44      [[1, 1024, 14, 14]]    [1, 2048, 7, 7]       2,097,152   
  BatchNorm2D-44     [[1, 2048, 7, 7]]     [1, 2048, 7, 7]         8,192     
BottleneckBlock-14  [[1, 1024, 14, 14]]    [1, 2048, 7, 7]           0       
     Conv2D-48       [[1, 2048, 7, 7]]      [1, 512, 7, 7]       1,048,576   
  BatchNorm2D-48      [[1, 512, 7, 7]]      [1, 512, 7, 7]         2,048     
      ReLU-16        [[1, 2048, 7, 7]]     [1, 2048, 7, 7]           0       
     Conv2D-49        [[1, 512, 7, 7]]      [1, 512, 7, 7]       2,359,296   
  BatchNorm2D-49      [[1, 512, 7, 7]]      [1, 512, 7, 7]         2,048     
     Conv2D-50        [[1, 512, 7, 7]]     [1, 2048, 7, 7]       1,048,576   
  BatchNorm2D-50     [[1, 2048, 7, 7]]     [1, 2048, 7, 7]         8,192     
BottleneckBlock-15   [[1, 2048, 7, 7]]     [1, 2048, 7, 7]           0       
     Conv2D-51       [[1, 2048, 7, 7]]      [1, 512, 7, 7]       1,048,576   
  BatchNorm2D-51      [[1, 512, 7, 7]]      [1, 512, 7, 7]         2,048     
      ReLU-17        [[1, 2048, 7, 7]]     [1, 2048, 7, 7]           0       
     Conv2D-52        [[1, 512, 7, 7]]      [1, 512, 7, 7]       2,359,296   
  BatchNorm2D-52      [[1, 512, 7, 7]]      [1, 512, 7, 7]         2,048     
     Conv2D-53        [[1, 512, 7, 7]]     [1, 2048, 7, 7]       1,048,576   
  BatchNorm2D-53     [[1, 2048, 7, 7]]     [1, 2048, 7, 7]         8,192     
BottleneckBlock-16   [[1, 2048, 7, 7]]     [1, 2048, 7, 7]           0       
AdaptiveAvgPool2D-1  [[1, 2048, 7, 7]]     [1, 2048, 1, 1]           0       
     Linear-1           [[1, 2048]]             [1, 5]            10,245     
===============================================================================
Total params: 23,571,397
Trainable params: 23,465,157
Non-trainable params: 106,240
-------------------------------------------------------------------------------
Input size (MB): 0.57
Forward/backward pass size (MB): 261.48
Params size (MB): 89.92
Estimated Total Size (MB): 351.97
-------------------------------------------------------------------------------
…
