生成数据列表完成！
---------------------------------------------------------------------------
 Layer (type)       Input Shape          Output Shape         Param #    
===========================================================================
   Conv2D-1      [[1, 3, 224, 224]]   [1, 64, 112, 112]        9,472     
 BatchNorm2D-1  [[1, 64, 112, 112]]   [1, 64, 112, 112]         256      
    ReLU-1      [[1, 64, 112, 112]]   [1, 64, 112, 112]          0       
  MaxPool2D-1   [[1, 64, 112, 112]]    [1, 64, 56, 56]           0       
   Conv2D-2      [[1, 64, 56, 56]]     [1, 64, 56, 56]        36,928     
 BatchNorm2D-2   [[1, 64, 56, 56]]     [1, 64, 56, 56]          256      
   Conv2D-3      [[1, 64, 56, 56]]     [1, 64, 56, 56]        36,928     
 BatchNorm2D-3   [[1, 64, 56, 56]]     [1, 64, 56, 56]          256      
  Residual-1     [[1, 64, 56, 56]]     [1, 64, 56, 56]           0       
   Conv2D-4      [[1, 64, 56, 56]]     [1, 64, 56, 56]        36,928     
 BatchNorm2D-4   [[1, 64, 56, 56]]     [1, 64, 56, 56]          256      
   Conv2D-5      [[1, 64, 56, 56]]     [1, 64, 56, 56]        36,928     
 BatchNorm2D-5   [[1, 64, 56, 56]]     [1, 64, 56, 56]          256      
  Residual-2     [[1, 64, 56, 56]]     [1, 64, 56, 56]           0       
   Conv2D-6      [[1, 64, 56, 56]]     [1, 64, 56, 56]        36,928     
 BatchNorm2D-6   [[1, 64, 56, 56]]     [1, 64, 56, 56]          256      
   Conv2D-7      [[1, 64, 56, 56]]     [1, 64, 56, 56]        36,928     
 BatchNorm2D-7   [[1, 64, 56, 56]]     [1, 64, 56, 56]          256      
  Residual-3     [[1, 64, 56, 56]]     [1, 64, 56, 56]           0       
   Conv2D-8      [[1, 64, 56, 56]]     [1, 128, 28, 28]       73,856     
 BatchNorm2D-8   [[1, 128, 28, 28]]    [1, 128, 28, 28]         512      
   Conv2D-9      [[1, 128, 28, 28]]    [1, 128, 28, 28]       147,584    
 BatchNorm2D-9   [[1, 128, 28, 28]]    [1, 128, 28, 28]         512      
   Conv2D-10     [[1, 64, 56, 56]]     [1, 128, 28, 28]        8,320     
  Residual-4     [[1, 64, 56, 56]]     [1, 128, 28, 28]          0       
   Conv2D-11     [[1, 128, 28, 28]]    [1, 128, 28, 28]       147,584    
BatchNorm2D-10   [[1, 128, 28, 28]]    [1, 128, 28, 28]         512      
   Conv2D-12     [[1, 128, 28, 28]]    [1, 128, 28, 28]       147,584    
BatchNorm2D-11   [[1, 128, 28, 28]]    [1, 128, 28, 28]         512      
  Residual-5     [[1, 128, 28, 28]]    [1, 128, 28, 28]          0       
   Conv2D-13     [[1, 128, 28, 28]]    [1, 128, 28, 28]       147,584    
BatchNorm2D-12   [[1, 128, 28, 28]]    [1, 128, 28, 28]         512      
   Conv2D-14     [[1, 128, 28, 28]]    [1, 128, 28, 28]       147,584    
BatchNorm2D-13   [[1, 128, 28, 28]]    [1, 128, 28, 28]         512      
  Residual-6     [[1, 128, 28, 28]]    [1, 128, 28, 28]          0       
   Conv2D-15     [[1, 128, 28, 28]]    [1, 128, 28, 28]       147,584    
BatchNorm2D-14   [[1, 128, 28, 28]]    [1, 128, 28, 28]         512      
   Conv2D-16     [[1, 128, 28, 28]]    [1, 128, 28, 28]       147,584    
BatchNorm2D-15   [[1, 128, 28, 28]]    [1, 128, 28, 28]         512      
  Residual-7     [[1, 128, 28, 28]]    [1, 128, 28, 28]          0       
   Conv2D-17     [[1, 128, 28, 28]]    [1, 256, 14, 14]       295,168    
BatchNorm2D-16   [[1, 256, 14, 14]]    [1, 256, 14, 14]        1,024     
   Conv2D-18     [[1, 256, 14, 14]]    [1, 256, 14, 14]       590,080    
BatchNorm2D-17   [[1, 256, 14, 14]]    [1, 256, 14, 14]        1,024     
   Conv2D-19     [[1, 128, 28, 28]]    [1, 256, 14, 14]       33,024     
  Residual-8     [[1, 128, 28, 28]]    [1, 256, 14, 14]          0       
   Conv2D-20     [[1, 256, 14, 14]]    [1, 256, 14, 14]       590,080    
BatchNorm2D-18   [[1, 256, 14, 14]]    [1, 256, 14, 14]        1,024     
   Conv2D-21     [[1, 256, 14, 14]]    [1, 256, 14, 14]       590,080    
BatchNorm2D-19   [[1, 256, 14, 14]]    [1, 256, 14, 14]        1,024     
  Residual-9     [[1, 256, 14, 14]]    [1, 256, 14, 14]          0       
   Conv2D-22     [[1, 256, 14, 14]]    [1, 256, 14, 14]       590,080    
BatchNorm2D-20   [[1, 256, 14, 14]]    [1, 256, 14, 14]        1,024     
   Conv2D-23     [[1, 256, 14, 14]]    [1, 256, 14, 14]       590,080    
BatchNorm2D-21   [[1, 256, 14, 14]]    [1, 256, 14, 14]        1,024     
  Residual-10    [[1, 256, 14, 14]]    [1, 256, 14, 14]          0       
   Conv2D-24     [[1, 256, 14, 14]]    [1, 256, 14, 14]       590,080    
BatchNorm2D-22   [[1, 256, 14, 14]]    [1, 256, 14, 14]        1,024     
   Conv2D-25     [[1, 256, 14, 14]]    [1, 256, 14, 14]       590,080    
BatchNorm2D-23   [[1, 256, 14, 14]]    [1, 256, 14, 14]        1,024     
  Residual-11    [[1, 256, 14, 14]]    [1, 256, 14, 14]          0       
   Conv2D-26     [[1, 256, 14, 14]]    [1, 256, 14, 14]       590,080    
BatchNorm2D-24   [[1, 256, 14, 14]]    [1, 256, 14, 14]        1,024     
   Conv2D-27     [[1, 256, 14, 14]]    [1, 256, 14, 14]       590,080    
BatchNorm2D-25   [[1, 256, 14, 14]]    [1, 256, 14, 14]        1,024     
  Residual-12    [[1, 256, 14, 14]]    [1, 256, 14, 14]          0       
   Conv2D-28     [[1, 256, 14, 14]]    [1, 256, 14, 14]       590,080    
BatchNorm2D-26   [[1, 256, 14, 14]]    [1, 256, 14, 14]        1,024     
   Conv2D-29     [[1, 256, 14, 14]]    [1, 256, 14, 14]       590,080    
BatchNorm2D-27   [[1, 256, 14, 14]]    [1, 256, 14, 14]        1,024     
  Residual-13    [[1, 256, 14, 14]]    [1, 256, 14, 14]          0       
   Conv2D-30     [[1, 256, 14, 14]]     [1, 512, 7, 7]       1,180,160   
BatchNorm2D-28    [[1, 512, 7, 7]]      [1, 512, 7, 7]         2,048     
   Conv2D-31      [[1, 512, 7, 7]]      [1, 512, 7, 7]       2,359,808   
BatchNorm2D-29    [[1, 512, 7, 7]]      [1, 512, 7, 7]         2,048     
   Conv2D-32     [[1, 256, 14, 14]]     [1, 512, 7, 7]        131,584    
  Residual-14    [[1, 256, 14, 14]]     [1, 512, 7, 7]           0       
   Conv2D-33      [[1, 512, 7, 7]]      [1, 512, 7, 7]       2,359,808   
BatchNorm2D-30    [[1, 512, 7, 7]]      [1, 512, 7, 7]         2,048     
   Conv2D-34      [[1, 512, 7, 7]]      [1, 512, 7, 7]       2,359,808   
BatchNorm2D-31    [[1, 512, 7, 7]]      [1, 512, 7, 7]         2,048     
  Residual-15     [[1, 512, 7, 7]]      [1, 512, 7, 7]           0       
   Conv2D-35      [[1, 512, 7, 7]]      [1, 512, 7, 7]       2,359,808   
BatchNorm2D-32    [[1, 512, 7, 7]]      [1, 512, 7, 7]         2,048     
   Conv2D-36      [[1, 512, 7, 7]]      [1, 512, 7, 7]       2,359,808   
BatchNorm2D-33    [[1, 512, 7, 7]]      [1, 512, 7, 7]         2,048     
  Residual-16     [[1, 512, 7, 7]]      [1, 512, 7, 7]           0       
  AvgPool2D-1     [[1, 512, 7, 7]]      [1, 512, 3, 3]           0       
   Flatten-1      [[1, 512, 3, 3]]        [1, 4608]              0       
   Linear-1         [[1, 4608]]            [1, 512]          2,359,808   
   Linear-2          [[1, 512]]             [1, 5]             2,565     
===========================================================================
Total params: 23,668,997
Trainable params: 23,638,533
Non-trainable params: 30,464
---------------------------------------------------------------------------
Input size (MB): 0.57
Forward/backward pass size (MB): 73.96
Params size (MB): 90.29
Estimated Total Size (MB): 164.82
---------------------------------------------------------------------------
…
