生成数据列表完成！
-------------------------------------------------------------------------------
   Layer (type)         Input Shape          Output Shape         Param #    
===============================================================================
     Conv2D-1        [[1, 3, 224, 224]]   [1, 64, 112, 112]        9,408     
   BatchNorm2D-1    [[1, 64, 112, 112]]   [1, 64, 112, 112]         256      
      ReLU-1        [[1, 64, 112, 112]]   [1, 64, 112, 112]          0       
    MaxPool2D-1     [[1, 64, 112, 112]]    [1, 64, 56, 56]           0       
     Conv2D-2        [[1, 64, 56, 56]]     [1, 64, 56, 56]        36,864     
   BatchNorm2D-2     [[1, 64, 56, 56]]     [1, 64, 56, 56]          256      
      ReLU-2         [[1, 64, 56, 56]]     [1, 64, 56, 56]           0       
     Conv2D-3        [[1, 64, 56, 56]]     [1, 64, 56, 56]        36,864     
   BatchNorm2D-3     [[1, 64, 56, 56]]     [1, 64, 56, 56]          256      
   BasicBlock-1      [[1, 64, 56, 56]]     [1, 64, 56, 56]           0       
     Conv2D-4        [[1, 64, 56, 56]]     [1, 64, 56, 56]        36,864     
   BatchNorm2D-4     [[1, 64, 56, 56]]     [1, 64, 56, 56]          256      
      ReLU-3         [[1, 64, 56, 56]]     [1, 64, 56, 56]           0       
     Conv2D-5        [[1, 64, 56, 56]]     [1, 64, 56, 56]        36,864     
   BatchNorm2D-5     [[1, 64, 56, 56]]     [1, 64, 56, 56]          256      
   BasicBlock-2      [[1, 64, 56, 56]]     [1, 64, 56, 56]           0       
     Conv2D-6        [[1, 64, 56, 56]]     [1, 64, 56, 56]        36,864     
   BatchNorm2D-6     [[1, 64, 56, 56]]     [1, 64, 56, 56]          256      
      ReLU-4         [[1, 64, 56, 56]]     [1, 64, 56, 56]           0       
     Conv2D-7        [[1, 64, 56, 56]]     [1, 64, 56, 56]        36,864     
   BatchNorm2D-7     [[1, 64, 56, 56]]     [1, 64, 56, 56]          256      
   BasicBlock-3      [[1, 64, 56, 56]]     [1, 64, 56, 56]           0       
     Conv2D-9        [[1, 64, 56, 56]]     [1, 128, 28, 28]       73,728     
   BatchNorm2D-9     [[1, 128, 28, 28]]    [1, 128, 28, 28]         512      
      ReLU-5         [[1, 128, 28, 28]]    [1, 128, 28, 28]          0       
     Conv2D-10       [[1, 128, 28, 28]]    [1, 128, 28, 28]       147,456    
  BatchNorm2D-10     [[1, 128, 28, 28]]    [1, 128, 28, 28]         512      
     Conv2D-8        [[1, 64, 56, 56]]     [1, 128, 28, 28]        8,192     
   BatchNorm2D-8     [[1, 128, 28, 28]]    [1, 128, 28, 28]         512      
   BasicBlock-4      [[1, 64, 56, 56]]     [1, 128, 28, 28]          0       
     Conv2D-11       [[1, 128, 28, 28]]    [1, 128, 28, 28]       147,456    
  BatchNorm2D-11     [[1, 128, 28, 28]]    [1, 128, 28, 28]         512      
      ReLU-6         [[1, 128, 28, 28]]    [1, 128, 28, 28]          0       
     Conv2D-12       [[1, 128, 28, 28]]    [1, 128, 28, 28]       147,456    
  BatchNorm2D-12     [[1, 128, 28, 28]]    [1, 128, 28, 28]         512      
   BasicBlock-5      [[1, 128, 28, 28]]    [1, 128, 28, 28]          0       
     Conv2D-13       [[1, 128, 28, 28]]    [1, 128, 28, 28]       147,456    
  BatchNorm2D-13     [[1, 128, 28, 28]]    [1, 128, 28, 28]         512      
      ReLU-7         [[1, 128, 28, 28]]    [1, 128, 28, 28]          0       
     Conv2D-14       [[1, 128, 28, 28]]    [1, 128, 28, 28]       147,456    
  BatchNorm2D-14     [[1, 128, 28, 28]]    [1, 128, 28, 28]         512      
   BasicBlock-6      [[1, 128, 28, 28]]    [1, 128, 28, 28]          0       
     Conv2D-15       [[1, 128, 28, 28]]    [1, 128, 28, 28]       147,456    
  BatchNorm2D-15     [[1, 128, 28, 28]]    [1, 128, 28, 28]         512      
      ReLU-8         [[1, 128, 28, 28]]    [1, 128, 28, 28]          0       
     Conv2D-16       [[1, 128, 28, 28]]    [1, 128, 28, 28]       147,456    
  BatchNorm2D-16     [[1, 128, 28, 28]]    [1, 128, 28, 28]         512      
   BasicBlock-7      [[1, 128, 28, 28]]    [1, 128, 28, 28]          0       
     Conv2D-18       [[1, 128, 28, 28]]    [1, 256, 14, 14]       294,912    
  BatchNorm2D-18     [[1, 256, 14, 14]]    [1, 256, 14, 14]        1,024     
      ReLU-9         [[1, 256, 14, 14]]    [1, 256, 14, 14]          0       
     Conv2D-19       [[1, 256, 14, 14]]    [1, 256, 14, 14]       589,824    
  BatchNorm2D-19     [[1, 256, 14, 14]]    [1, 256, 14, 14]        1,024     
     Conv2D-17       [[1, 128, 28, 28]]    [1, 256, 14, 14]       32,768     
  BatchNorm2D-17     [[1, 256, 14, 14]]    [1, 256, 14, 14]        1,024     
   BasicBlock-8      [[1, 128, 28, 28]]    [1, 256, 14, 14]          0       
     Conv2D-20       [[1, 256, 14, 14]]    [1, 256, 14, 14]       589,824    
  BatchNorm2D-20     [[1, 256, 14, 14]]    [1, 256, 14, 14]        1,024     
      ReLU-10        [[1, 256, 14, 14]]    [1, 256, 14, 14]          0       
     Conv2D-21       [[1, 256, 14, 14]]    [1, 256, 14, 14]       589,824    
  BatchNorm2D-21     [[1, 256, 14, 14]]    [1, 256, 14, 14]        1,024     
   BasicBlock-9      [[1, 256, 14, 14]]    [1, 256, 14, 14]          0       
     Conv2D-22       [[1, 256, 14, 14]]    [1, 256, 14, 14]       589,824    
  BatchNorm2D-22     [[1, 256, 14, 14]]    [1, 256, 14, 14]        1,024     
      ReLU-11        [[1, 256, 14, 14]]    [1, 256, 14, 14]          0       
     Conv2D-23       [[1, 256, 14, 14]]    [1, 256, 14, 14]       589,824    
  BatchNorm2D-23     [[1, 256, 14, 14]]    [1, 256, 14, 14]        1,024     
   BasicBlock-10     [[1, 256, 14, 14]]    [1, 256, 14, 14]          0       
     Conv2D-24       [[1, 256, 14, 14]]    [1, 256, 14, 14]       589,824    
  BatchNorm2D-24     [[1, 256, 14, 14]]    [1, 256, 14, 14]        1,024     
      ReLU-12        [[1, 256, 14, 14]]    [1, 256, 14, 14]          0       
     Conv2D-25       [[1, 256, 14, 14]]    [1, 256, 14, 14]       589,824    
  BatchNorm2D-25     [[1, 256, 14, 14]]    [1, 256, 14, 14]        1,024     
   BasicBlock-11     [[1, 256, 14, 14]]    [1, 256, 14, 14]          0       
     Conv2D-26       [[1, 256, 14, 14]]    [1, 256, 14, 14]       589,824    
  BatchNorm2D-26     [[1, 256, 14, 14]]    [1, 256, 14, 14]        1,024     
      ReLU-13        [[1, 256, 14, 14]]    [1, 256, 14, 14]          0       
     Conv2D-27       [[1, 256, 14, 14]]    [1, 256, 14, 14]       589,824    
  BatchNorm2D-27     [[1, 256, 14, 14]]    [1, 256, 14, 14]        1,024     
   BasicBlock-12     [[1, 256, 14, 14]]    [1, 256, 14, 14]          0       
     Conv2D-28       [[1, 256, 14, 14]]    [1, 256, 14, 14]       589,824    
  BatchNorm2D-28     [[1, 256, 14, 14]]    [1, 256, 14, 14]        1,024     
      ReLU-14        [[1, 256, 14, 14]]    [1, 256, 14, 14]          0       
     Conv2D-29       [[1, 256, 14, 14]]    [1, 256, 14, 14]       589,824    
  BatchNorm2D-29     [[1, 256, 14, 14]]    [1, 256, 14, 14]        1,024     
   BasicBlock-13     [[1, 256, 14, 14]]    [1, 256, 14, 14]          0       
     Conv2D-31       [[1, 256, 14, 14]]     [1, 512, 7, 7]       1,179,648   
  BatchNorm2D-31      [[1, 512, 7, 7]]      [1, 512, 7, 7]         2,048     
      ReLU-15         [[1, 512, 7, 7]]      [1, 512, 7, 7]           0       
     Conv2D-32        [[1, 512, 7, 7]]      [1, 512, 7, 7]       2,359,296   
  BatchNorm2D-32      [[1, 512, 7, 7]]      [1, 512, 7, 7]         2,048     
     Conv2D-30       [[1, 256, 14, 14]]     [1, 512, 7, 7]        131,072    
  BatchNorm2D-30      [[1, 512, 7, 7]]      [1, 512, 7, 7]         2,048     
   BasicBlock-14     [[1, 256, 14, 14]]     [1, 512, 7, 7]           0       
     Conv2D-33        [[1, 512, 7, 7]]      [1, 512, 7, 7]       2,359,296   
  BatchNorm2D-33      [[1, 512, 7, 7]]      [1, 512, 7, 7]         2,048     
      ReLU-16         [[1, 512, 7, 7]]      [1, 512, 7, 7]           0       
     Conv2D-34        [[1, 512, 7, 7]]      [1, 512, 7, 7]       2,359,296   
  BatchNorm2D-34      [[1, 512, 7, 7]]      [1, 512, 7, 7]         2,048     
   BasicBlock-15      [[1, 512, 7, 7]]      [1, 512, 7, 7]           0       
     Conv2D-35        [[1, 512, 7, 7]]      [1, 512, 7, 7]       2,359,296   
  BatchNorm2D-35      [[1, 512, 7, 7]]      [1, 512, 7, 7]         2,048     
      ReLU-17         [[1, 512, 7, 7]]      [1, 512, 7, 7]           0       
     Conv2D-36        [[1, 512, 7, 7]]      [1, 512, 7, 7]       2,359,296   
  BatchNorm2D-36      [[1, 512, 7, 7]]      [1, 512, 7, 7]         2,048     
   BasicBlock-16      [[1, 512, 7, 7]]      [1, 512, 7, 7]           0       
AdaptiveAvgPool2D-1   [[1, 512, 7, 7]]      [1, 512, 1, 1]           0       
     Linear-1            [[1, 512]]             [1, 5]             2,565     
===============================================================================
Total params: 21,304,261
Trainable params: 21,270,213
Non-trainable params: 34,048
-------------------------------------------------------------------------------
Input size (MB): 0.57
Forward/backward pass size (MB): 85.75
Params size (MB): 81.27
Estimated Total Size (MB): 167.60
-------------------------------------------------------------------------------
…
