生成数据列表完成！
-------------------------------------------------------------------------------
   Layer (type)         Input Shape          Output Shape         Param #    
===============================================================================
     Conv2D-1        [[1, 3, 224, 224]]   [1, 64, 224, 224]        1,792     
   BatchNorm2D-1    [[1, 64, 224, 224]]   [1, 64, 224, 224]         256      
      ReLU-1        [[1, 64, 224, 224]]   [1, 64, 224, 224]          0       
     Conv2D-2       [[1, 64, 224, 224]]   [1, 64, 224, 224]       36,928     
   BatchNorm2D-2    [[1, 64, 224, 224]]   [1, 64, 224, 224]         256      
      ReLU-2        [[1, 64, 224, 224]]   [1, 64, 224, 224]          0       
    MaxPool2D-1     [[1, 64, 224, 224]]   [1, 64, 112, 112]          0       
     Conv2D-3       [[1, 64, 112, 112]]   [1, 128, 112, 112]      73,856     
   BatchNorm2D-3    [[1, 128, 112, 112]]  [1, 128, 112, 112]        512      
      ReLU-3        [[1, 128, 112, 112]]  [1, 128, 112, 112]         0       
     Conv2D-4       [[1, 128, 112, 112]]  [1, 128, 112, 112]      147,584    
   BatchNorm2D-4    [[1, 128, 112, 112]]  [1, 128, 112, 112]        512      
      ReLU-4        [[1, 128, 112, 112]]  [1, 128, 112, 112]         0       
    MaxPool2D-2     [[1, 128, 112, 112]]   [1, 128, 56, 56]          0       
     Conv2D-5        [[1, 128, 56, 56]]    [1, 256, 56, 56]       295,168    
   BatchNorm2D-5     [[1, 256, 56, 56]]    [1, 256, 56, 56]        1,024     
      ReLU-5         [[1, 256, 56, 56]]    [1, 256, 56, 56]          0       
     Conv2D-6        [[1, 256, 56, 56]]    [1, 256, 56, 56]       590,080    
   BatchNorm2D-6     [[1, 256, 56, 56]]    [1, 256, 56, 56]        1,024     
      ReLU-6         [[1, 256, 56, 56]]    [1, 256, 56, 56]          0       
     Conv2D-7        [[1, 256, 56, 56]]    [1, 256, 56, 56]       590,080    
   BatchNorm2D-7     [[1, 256, 56, 56]]    [1, 256, 56, 56]        1,024     
      ReLU-7         [[1, 256, 56, 56]]    [1, 256, 56, 56]          0       
    MaxPool2D-3      [[1, 256, 56, 56]]    [1, 256, 28, 28]          0       
     Conv2D-8        [[1, 256, 28, 28]]    [1, 512, 28, 28]      1,180,160   
   BatchNorm2D-8     [[1, 512, 28, 28]]    [1, 512, 28, 28]        2,048     
      ReLU-8         [[1, 512, 28, 28]]    [1, 512, 28, 28]          0       
     Conv2D-9        [[1, 512, 28, 28]]    [1, 512, 28, 28]      2,359,808   
   BatchNorm2D-9     [[1, 512, 28, 28]]    [1, 512, 28, 28]        2,048     
      ReLU-9         [[1, 512, 28, 28]]    [1, 512, 28, 28]          0       
     Conv2D-10       [[1, 512, 28, 28]]    [1, 512, 28, 28]      2,359,808   
  BatchNorm2D-10     [[1, 512, 28, 28]]    [1, 512, 28, 28]        2,048     
      ReLU-10        [[1, 512, 28, 28]]    [1, 512, 28, 28]          0       
    MaxPool2D-4      [[1, 512, 28, 28]]    [1, 512, 14, 14]          0       
     Conv2D-11       [[1, 512, 14, 14]]    [1, 512, 14, 14]      2,359,808   
  BatchNorm2D-11     [[1, 512, 14, 14]]    [1, 512, 14, 14]        2,048     
      ReLU-11        [[1, 512, 14, 14]]    [1, 512, 14, 14]          0       
     Conv2D-12       [[1, 512, 14, 14]]    [1, 512, 14, 14]      2,359,808   
  BatchNorm2D-12     [[1, 512, 14, 14]]    [1, 512, 14, 14]        2,048     
      ReLU-12        [[1, 512, 14, 14]]    [1, 512, 14, 14]          0       
     Conv2D-13       [[1, 512, 14, 14]]    [1, 512, 14, 14]      2,359,808   
  BatchNorm2D-13     [[1, 512, 14, 14]]    [1, 512, 14, 14]        2,048     
      ReLU-13        [[1, 512, 14, 14]]    [1, 512, 14, 14]          0       
    MaxPool2D-5      [[1, 512, 14, 14]]     [1, 512, 7, 7]           0       
AdaptiveAvgPool2D-1   [[1, 512, 7, 7]]      [1, 512, 7, 7]           0       
     Linear-1           [[1, 25088]]          [1, 4096]         102,764,544  
      ReLU-14           [[1, 4096]]           [1, 4096]              0       
     Dropout-1          [[1, 4096]]           [1, 4096]              0       
     Linear-2           [[1, 4096]]           [1, 4096]         16,781,312   
      ReLU-15           [[1, 4096]]           [1, 4096]              0       
     Dropout-2          [[1, 4096]]           [1, 4096]              0       
     Linear-3           [[1, 4096]]             [1, 5]            20,485     
===============================================================================
Total params: 134,297,925
Trainable params: 134,281,029
Non-trainable params: 16,896
-------------------------------------------------------------------------------
Input size (MB): 0.57
Forward/backward pass size (MB): 322.13
Params size (MB): 512.31
Estimated Total Size (MB): 835.01
-------------------------------------------------------------------------------
…
