…
Cannot find suitable count function for <class 'paddle.nn.layer.pooling.MaxPool2D'>. Treat it as zero FLOPs.
<class 'paddle.nn.layer.pooling.AvgPool2D'>'s flops has been counted
Cannot find suitable count function for <class 'paddle.fluid.dygraph.nn.Flatten'>. Treat it as zero FLOPs.
<class 'paddle.nn.layer.common.Linear'>'s flops has been counted
+----------------+-------------------+-------------------+--------+-----------+
|   Layer Name   |    Input Shape    |    Output Shape   | Params |   Flops   |
+----------------+-------------------+-------------------+--------+-----------+
|    conv2d_0    |  [1, 3, 224, 224] | [1, 64, 112, 112] |  9472  | 118816768 |
| batch_norm2d_0 | [1, 64, 112, 112] | [1, 64, 112, 112] |  256   |  1605632  |
|    re_lu_0     | [1, 64, 112, 112] | [1, 64, 112, 112] |   0    |     0     |
|  max_pool2d_0  | [1, 64, 112, 112] |  [1, 64, 55, 55]  |   0    |     0     |
|    conv2d_1    |  [1, 64, 55, 55]  |  [1, 64, 55, 55]  |  4160  |  12584000 |
| batch_norm2d_1 |  [1, 64, 55, 55]  |  [1, 64, 55, 55]  |  256   |   387200  |
|    re_lu_1     |  [1, 64, 55, 55]  |  [1, 64, 55, 55]  |   0    |     0     |
|    conv2d_2    |  [1, 64, 55, 55]  |  [1, 192, 55, 55] | 110784 | 335121600 |
| batch_norm2d_2 |  [1, 192, 55, 55] |  [1, 192, 55, 55] |  768   |  1161600  |
|    re_lu_2     |  [1, 192, 55, 55] |  [1, 192, 55, 55] |   0    |     0     |
|  max_pool2d_1  |  [1, 192, 55, 55] |  [1, 192, 27, 27] |   0    |     0     |
|    conv2d_3    |  [1, 192, 27, 27] |  [1, 64, 27, 27]  | 12352  |  9004608  |
|    conv2d_4    |  [1, 192, 27, 27] |  [1, 96, 27, 27]  | 18528  |  13506912 |
|    conv2d_5    |  [1, 96, 27, 27]  |  [1, 128, 27, 27] | 110720 |  80714880 |
|    conv2d_6    |  [1, 192, 27, 27] |  [1, 16, 27, 27]  |  3088  |  2251152  |
|    conv2d_7    |  [1, 16, 27, 27]  |  [1, 32, 27, 27]  | 12832  |  9354528  |
|  max_pool2d_2  |  [1, 192, 27, 27] |  [1, 192, 27, 27] |   0    |     0     |
|    conv2d_8    |  [1, 192, 27, 27] |  [1, 32, 27, 27]  |  6176  |  4502304  |
|    conv2d_9    |  [1, 256, 27, 27] |  [1, 128, 27, 27] | 32896  |  23981184 |
|   conv2d_10    |  [1, 256, 27, 27] |  [1, 128, 27, 27] | 32896  |  23981184 |
|   conv2d_11    |  [1, 128, 27, 27] |  [1, 192, 27, 27] | 221376 | 161383104 |
|   conv2d_12    |  [1, 256, 27, 27] |  [1, 32, 27, 27]  |  8224  |  5995296  |
|   conv2d_13    |  [1, 32, 27, 27]  |  [1, 96, 27, 27]  | 76896  |  56057184 |
|  max_pool2d_3  |  [1, 256, 27, 27] |  [1, 256, 27, 27] |   0    |     0     |
|   conv2d_14    |  [1, 256, 27, 27] |  [1, 64, 27, 27]  | 16448  |  11990592 |
|  max_pool2d_4  |  [1, 480, 27, 27] |  [1, 480, 13, 13] |   0    |     0     |
|   conv2d_15    |  [1, 480, 13, 13] |  [1, 192, 13, 13] | 92352  |  15607488 |
|   conv2d_16    |  [1, 480, 13, 13] |  [1, 96, 13, 13]  | 46176  |  7803744  |
|   conv2d_17    |  [1, 96, 13, 13]  |  [1, 208, 13, 13] | 179920 |  30406480 |
|   conv2d_18    |  [1, 480, 13, 13] |  [1, 16, 13, 13]  |  7696  |  1300624  |
|   conv2d_19    |  [1, 16, 13, 13]  |  [1, 48, 13, 13]  | 19248  |  3252912  |
|  max_pool2d_5  |  [1, 480, 13, 13] |  [1, 480, 13, 13] |   0    |     0     |
|   conv2d_20    |  [1, 480, 13, 13] |  [1, 64, 13, 13]  | 30784  |  5202496  |
|   conv2d_21    |  [1, 512, 13, 13] |  [1, 160, 13, 13] | 82080  |  13871520 |
|   conv2d_22    |  [1, 512, 13, 13] |  [1, 112, 13, 13] | 57456  |  9710064  |
|   conv2d_23    |  [1, 112, 13, 13] |  [1, 224, 13, 13] | 226016 |  38196704 |
|   conv2d_24    |  [1, 512, 13, 13] |  [1, 24, 13, 13]  | 12312  |  2080728  |
|   conv2d_25    |  [1, 24, 13, 13]  |  [1, 64, 13, 13]  | 38464  |  6500416  |
|  max_pool2d_6  |  [1, 512, 13, 13] |  [1, 512, 13, 13] |   0    |     0     |
|   conv2d_26    |  [1, 512, 13, 13] |  [1, 64, 13, 13]  | 32832  |  5548608  |
|   conv2d_27    |  [1, 512, 13, 13] |  [1, 128, 13, 13] | 65664  |  11097216 |
|   conv2d_28    |  [1, 512, 13, 13] |  [1, 128, 13, 13] | 65664  |  11097216 |
|   conv2d_29    |  [1, 128, 13, 13] |  [1, 256, 13, 13] | 295168 |  49883392 |
|   conv2d_30    |  [1, 512, 13, 13] |  [1, 24, 13, 13]  | 12312  |  2080728  |
|   conv2d_31    |  [1, 24, 13, 13]  |  [1, 64, 13, 13]  | 38464  |  6500416  |
|  max_pool2d_7  |  [1, 512, 13, 13] |  [1, 512, 13, 13] |   0    |     0     |
|   conv2d_32    |  [1, 512, 13, 13] |  [1, 64, 13, 13]  | 32832  |  5548608  |
|   conv2d_33    |  [1, 512, 13, 13] |  [1, 112, 13, 13] | 57456  |  9710064  |
|   conv2d_34    |  [1, 512, 13, 13] |  [1, 144, 13, 13] | 73872  |  12484368 |
|   conv2d_35    |  [1, 144, 13, 13] |  [1, 288, 13, 13] | 373536 |  63127584 |
|   conv2d_36    |  [1, 512, 13, 13] |  [1, 32, 13, 13]  | 16416  |  2774304  |
|   conv2d_37    |  [1, 32, 13, 13]  |  [1, 64, 13, 13]  | 51264  |  8663616  |
|  max_pool2d_8  |  [1, 512, 13, 13] |  [1, 512, 13, 13] |   0    |     0     |
|   conv2d_38    |  [1, 512, 13, 13] |  [1, 64, 13, 13]  | 32832  |  5548608  |
|   conv2d_39    |  [1, 528, 13, 13] |  [1, 256, 13, 13] | 135424 |  22886656 |
|   conv2d_40    |  [1, 528, 13, 13] |  [1, 160, 13, 13] | 84640  |  14304160 |
|   conv2d_41    |  [1, 160, 13, 13] |  [1, 320, 13, 13] | 461120 |  77929280 |
|   conv2d_42    |  [1, 528, 13, 13] |  [1, 32, 13, 13]  | 16928  |  2860832  |
|   conv2d_43    |  [1, 32, 13, 13]  |  [1, 128, 13, 13] | 102528 |  17327232 |
|  max_pool2d_9  |  [1, 528, 13, 13] |  [1, 528, 13, 13] |   0    |     0     |
|   conv2d_44    |  [1, 528, 13, 13] |  [1, 128, 13, 13] | 67712  |  11443328 |
| max_pool2d_10  |  [1, 832, 13, 13] |   [1, 832, 6, 6]  |   0    |     0     |
|   conv2d_45    |   [1, 832, 6, 6]  |   [1, 256, 6, 6]  | 213248 |  7676928  |
|   conv2d_46    |   [1, 832, 6, 6]  |   [1, 160, 6, 6]  | 133280 |  4798080  |
|   conv2d_47    |   [1, 160, 6, 6]  |   [1, 320, 6, 6]  | 461120 |  16600320 |
|   conv2d_48    |   [1, 832, 6, 6]  |   [1, 32, 6, 6]   | 26656  |   959616  |
|   conv2d_49    |   [1, 32, 6, 6]   |   [1, 128, 6, 6]  | 102528 |  3691008  |
| max_pool2d_11  |   [1, 832, 6, 6]  |   [1, 832, 6, 6]  |   0    |     0     |
|   conv2d_50    |   [1, 832, 6, 6]  |   [1, 128, 6, 6]  | 106624 |  3838464  |
|   conv2d_51    |   [1, 832, 6, 6]  |   [1, 384, 6, 6]  | 319872 |  11515392 |
|   conv2d_52    |   [1, 832, 6, 6]  |   [1, 182, 6, 6]  | 151606 |  5457816  |
|   conv2d_53    |   [1, 182, 6, 6]  |   [1, 384, 6, 6]  | 629376 |  22657536 |
|   conv2d_54    |   [1, 832, 6, 6]  |   [1, 48, 6, 6]   | 39984  |  1439424  |
|   conv2d_55    |   [1, 48, 6, 6]   |   [1, 128, 6, 6]  | 153728 |  5534208  |
| max_pool2d_12  |   [1, 832, 6, 6]  |   [1, 832, 6, 6]  |   0    |     0     |
|   conv2d_56    |   [1, 832, 6, 6]  |   [1, 128, 6, 6]  | 106624 |  3838464  |
|  avg_pool2d_0  |  [1, 1024, 6, 6]  |  [1, 1024, 3, 3]  |   0    |    9216   |
|   flatten_0    |  [1, 1024, 3, 3]  |     [1, 9216]     |   0    |     0     |
|    linear_0    |     [1, 9216]     |       [1, 5]      | 46085  |   46080   |
+----------------+-------------------+-------------------+--------+-----------+
Total Flops: 1435211672     Total Params: 5978027
1435211672
2021-10-29 12:18:00
[training] epoch: 1, step: 1, loss: 11.494925498962402, acc: 0.0625
[training] epoch: 1, step: 21, loss: 0.9360741376876831, acc: 0.5625
[training] epoch: 1, step: 41, loss: 1.0254638195037842, acc: 0.4375
[validation] epoch: 1, loss: 0.8126873796184858, acc: 0.6319444444444444
…
