…
<class 'paddle.nn.layer.conv.Conv2D'>'s flops has been counted
<class 'paddle.nn.layer.norm.BatchNorm2D'>'s flops has been counted
<class 'paddle.nn.layer.activation.ReLU'>'s flops has been counted
<class 'paddle.nn.layer.pooling.AdaptiveAvgPool2D'>'s flops has been counted
<class 'paddle.nn.layer.common.Linear'>'s flops has been counted
+-----------------------+-------------------+-------------------+---------+----------+
|       Layer Name      |    Input Shape    |    Output Shape   |  Params |  Flops   |
+-----------------------+-------------------+-------------------+---------+----------+
|        conv2d_0       |  [1, 3, 224, 224] | [1, 32, 112, 112] |   864   | 10838016 |
|     batch_norm2d_0    | [1, 32, 112, 112] | [1, 32, 112, 112] |   128   |  802816  |
|        re_lu_0        | [1, 32, 112, 112] | [1, 32, 112, 112] |    0    |    0     |
|        conv2d_1       | [1, 32, 112, 112] | [1, 32, 112, 112] |   288   | 3612672  |
|     batch_norm2d_1    | [1, 32, 112, 112] | [1, 32, 112, 112] |   128   |  802816  |
|        re_lu_1        | [1, 32, 112, 112] | [1, 32, 112, 112] |    0    |    0     |
|        conv2d_2       | [1, 32, 112, 112] | [1, 64, 112, 112] |   2048  | 25690112 |
|     batch_norm2d_2    | [1, 64, 112, 112] | [1, 64, 112, 112] |   256   | 1605632  |
|        re_lu_2        | [1, 64, 112, 112] | [1, 64, 112, 112] |    0    |    0     |
|        conv2d_3       | [1, 64, 112, 112] |  [1, 64, 56, 56]  |   576   | 1806336  |
|     batch_norm2d_3    |  [1, 64, 56, 56]  |  [1, 64, 56, 56]  |   256   |  401408  |
|        re_lu_3        |  [1, 64, 56, 56]  |  [1, 64, 56, 56]  |    0    |    0     |
|        conv2d_4       |  [1, 64, 56, 56]  |  [1, 128, 56, 56] |   8192  | 25690112 |
|     batch_norm2d_4    |  [1, 128, 56, 56] |  [1, 128, 56, 56] |   512   |  802816  |
|        re_lu_4        |  [1, 128, 56, 56] |  [1, 128, 56, 56] |    0    |    0     |
|        conv2d_5       |  [1, 128, 56, 56] |  [1, 128, 56, 56] |   1152  | 3612672  |
|     batch_norm2d_5    |  [1, 128, 56, 56] |  [1, 128, 56, 56] |   512   |  802816  |
|        re_lu_5        |  [1, 128, 56, 56] |  [1, 128, 56, 56] |    0    |    0     |
|        conv2d_6       |  [1, 128, 56, 56] |  [1, 128, 56, 56] |  16384  | 51380224 |
|     batch_norm2d_6    |  [1, 128, 56, 56] |  [1, 128, 56, 56] |   512   |  802816  |
|        re_lu_6        |  [1, 128, 56, 56] |  [1, 128, 56, 56] |    0    |    0     |
|        conv2d_7       |  [1, 128, 56, 56] |  [1, 128, 28, 28] |   1152  |  903168  |
|     batch_norm2d_7    |  [1, 128, 28, 28] |  [1, 128, 28, 28] |   512   |  200704  |
|        re_lu_7        |  [1, 128, 28, 28] |  [1, 128, 28, 28] |    0    |    0     |
|        conv2d_8       |  [1, 128, 28, 28] |  [1, 256, 28, 28] |  32768  | 25690112 |
|     batch_norm2d_8    |  [1, 256, 28, 28] |  [1, 256, 28, 28] |   1024  |  401408  |
|        re_lu_8        |  [1, 256, 28, 28] |  [1, 256, 28, 28] |    0    |    0     |
|        conv2d_9       |  [1, 256, 28, 28] |  [1, 256, 28, 28] |   2304  | 1806336  |
|     batch_norm2d_9    |  [1, 256, 28, 28] |  [1, 256, 28, 28] |   1024  |  401408  |
|        re_lu_9        |  [1, 256, 28, 28] |  [1, 256, 28, 28] |    0    |    0     |
|       conv2d_10       |  [1, 256, 28, 28] |  [1, 256, 28, 28] |  65536  | 51380224 |
|    batch_norm2d_10    |  [1, 256, 28, 28] |  [1, 256, 28, 28] |   1024  |  401408  |
|        re_lu_10       |  [1, 256, 28, 28] |  [1, 256, 28, 28] |    0    |    0     |
|       conv2d_11       |  [1, 256, 28, 28] |  [1, 256, 14, 14] |   2304  |  451584  |
|    batch_norm2d_11    |  [1, 256, 14, 14] |  [1, 256, 14, 14] |   1024  |  100352  |
|        re_lu_11       |  [1, 256, 14, 14] |  [1, 256, 14, 14] |    0    |    0     |
|       conv2d_12       |  [1, 256, 14, 14] |  [1, 512, 14, 14] |  131072 | 25690112 |
|    batch_norm2d_12    |  [1, 512, 14, 14] |  [1, 512, 14, 14] |   2048  |  200704  |
|        re_lu_12       |  [1, 512, 14, 14] |  [1, 512, 14, 14] |    0    |    0     |
|       conv2d_13       |  [1, 512, 14, 14] |  [1, 512, 14, 14] |   4608  |  903168  |
|    batch_norm2d_13    |  [1, 512, 14, 14] |  [1, 512, 14, 14] |   2048  |  200704  |
|        re_lu_13       |  [1, 512, 14, 14] |  [1, 512, 14, 14] |    0    |    0     |
|       conv2d_14       |  [1, 512, 14, 14] |  [1, 512, 14, 14] |  262144 | 51380224 |
|    batch_norm2d_14    |  [1, 512, 14, 14] |  [1, 512, 14, 14] |   2048  |  200704  |
|        re_lu_14       |  [1, 512, 14, 14] |  [1, 512, 14, 14] |    0    |    0     |
|       conv2d_15       |  [1, 512, 14, 14] |  [1, 512, 14, 14] |   4608  |  903168  |
|    batch_norm2d_15    |  [1, 512, 14, 14] |  [1, 512, 14, 14] |   2048  |  200704  |
|        re_lu_15       |  [1, 512, 14, 14] |  [1, 512, 14, 14] |    0    |    0     |
|       conv2d_16       |  [1, 512, 14, 14] |  [1, 512, 14, 14] |  262144 | 51380224 |
|    batch_norm2d_16    |  [1, 512, 14, 14] |  [1, 512, 14, 14] |   2048  |  200704  |
|        re_lu_16       |  [1, 512, 14, 14] |  [1, 512, 14, 14] |    0    |    0     |
|       conv2d_17       |  [1, 512, 14, 14] |  [1, 512, 14, 14] |   4608  |  903168  |
|    batch_norm2d_17    |  [1, 512, 14, 14] |  [1, 512, 14, 14] |   2048  |  200704  |
|        re_lu_17       |  [1, 512, 14, 14] |  [1, 512, 14, 14] |    0    |    0     |
|       conv2d_18       |  [1, 512, 14, 14] |  [1, 512, 14, 14] |  262144 | 51380224 |
|    batch_norm2d_18    |  [1, 512, 14, 14] |  [1, 512, 14, 14] |   2048  |  200704  |
|        re_lu_18       |  [1, 512, 14, 14] |  [1, 512, 14, 14] |    0    |    0     |
|       conv2d_19       |  [1, 512, 14, 14] |  [1, 512, 14, 14] |   4608  |  903168  |
|    batch_norm2d_19    |  [1, 512, 14, 14] |  [1, 512, 14, 14] |   2048  |  200704  |
|        re_lu_19       |  [1, 512, 14, 14] |  [1, 512, 14, 14] |    0    |    0     |
|       conv2d_20       |  [1, 512, 14, 14] |  [1, 512, 14, 14] |  262144 | 51380224 |
|    batch_norm2d_20    |  [1, 512, 14, 14] |  [1, 512, 14, 14] |   2048  |  200704  |
|        re_lu_20       |  [1, 512, 14, 14] |  [1, 512, 14, 14] |    0    |    0     |
|       conv2d_21       |  [1, 512, 14, 14] |  [1, 512, 14, 14] |   4608  |  903168  |
|    batch_norm2d_21    |  [1, 512, 14, 14] |  [1, 512, 14, 14] |   2048  |  200704  |
|        re_lu_21       |  [1, 512, 14, 14] |  [1, 512, 14, 14] |    0    |    0     |
|       conv2d_22       |  [1, 512, 14, 14] |  [1, 512, 14, 14] |  262144 | 51380224 |
|    batch_norm2d_22    |  [1, 512, 14, 14] |  [1, 512, 14, 14] |   2048  |  200704  |
|        re_lu_22       |  [1, 512, 14, 14] |  [1, 512, 14, 14] |    0    |    0     |
|       conv2d_23       |  [1, 512, 14, 14] |   [1, 512, 7, 7]  |   4608  |  225792  |
|    batch_norm2d_23    |   [1, 512, 7, 7]  |   [1, 512, 7, 7]  |   2048  |  50176   |
|        re_lu_23       |   [1, 512, 7, 7]  |   [1, 512, 7, 7]  |    0    |    0     |
|       conv2d_24       |   [1, 512, 7, 7]  |  [1, 1024, 7, 7]  |  524288 | 25690112 |
|    batch_norm2d_24    |  [1, 1024, 7, 7]  |  [1, 1024, 7, 7]  |   4096  |  100352  |
|        re_lu_24       |  [1, 1024, 7, 7]  |  [1, 1024, 7, 7]  |    0    |    0     |
|       conv2d_25       |  [1, 1024, 7, 7]  |  [1, 1024, 7, 7]  |   9216  |  451584  |
|    batch_norm2d_25    |  [1, 1024, 7, 7]  |  [1, 1024, 7, 7]  |   4096  |  100352  |
|        re_lu_25       |  [1, 1024, 7, 7]  |  [1, 1024, 7, 7]  |    0    |    0     |
|       conv2d_26       |  [1, 1024, 7, 7]  |  [1, 1024, 7, 7]  | 1048576 | 51380224 |
|    batch_norm2d_26    |  [1, 1024, 7, 7]  |  [1, 1024, 7, 7]  |   4096  |  100352  |
|        re_lu_26       |  [1, 1024, 7, 7]  |  [1, 1024, 7, 7]  |    0    |    0     |
| adaptive_avg_pool2d_0 |  [1, 1024, 7, 7]  |  [1, 1024, 1, 1]  |    0    |  51200   |
|        linear_0       |     [1, 1024]     |       [1, 5]      |   5125  |   5120   |
+-----------------------+-------------------+-------------------+---------+----------+
Total Flops: 577858048     Total Params: 3233989
577858048
2021-10-29 13:57:57
[training] epoch: 1, step: 1, loss: 1.6219501495361328, acc: 0.3125
[training] epoch: 1, step: 21, loss: 1.4809772968292236, acc: 0.4375
[training] epoch: 1, step: 41, loss: 1.4043318033218384, acc: 0.3125
[validation] epoch: 1, loss: 2.2056747807396784, acc: 0.18055555555555555
…
