…
<class 'paddle.nn.layer.activation.ReLU'>'s flops has been counted
Cannot find suitable count function for <class 'paddle.nn.layer.pooling.MaxPool2D'>. Treat it as zero FLOPs.
<class 'paddle.nn.layer.pooling.AdaptiveAvgPool2D'>'s flops has been counted
<class 'paddle.nn.layer.common.Linear'>'s flops has been counted
+-----------------------+-------------------+-------------------+---------+-----------+
|       Layer Name      |    Input Shape    |    Output Shape   |  Params |   Flops   |
+-----------------------+-------------------+-------------------+---------+-----------+
|        conv2d_0       |  [1, 3, 224, 224] | [1, 64, 112, 112] |   9408  | 118013952 |
|     batch_norm2d_0    | [1, 64, 112, 112] | [1, 64, 112, 112] |   256   |  1605632  |
|        re_lu_0        | [1, 64, 112, 112] | [1, 64, 112, 112] |    0    |     0     |
|      max_pool2d_0     | [1, 64, 112, 112] |  [1, 64, 56, 56]  |    0    |     0     |
|        conv2d_2       |  [1, 64, 56, 56]  |  [1, 64, 56, 56]  |   4096  |  12845056 |
|     batch_norm2d_2    |  [1, 64, 56, 56]  |  [1, 64, 56, 56]  |   256   |   401408  |
|        conv2d_3       |  [1, 64, 56, 56]  |  [1, 64, 56, 56]  |  36864  | 115605504 |
|     batch_norm2d_3    |  [1, 64, 56, 56]  |  [1, 64, 56, 56]  |   256   |   401408  |
|        conv2d_4       |  [1, 64, 56, 56]  |  [1, 256, 56, 56] |  16384  |  51380224 |
|     batch_norm2d_4    |  [1, 256, 56, 56] |  [1, 256, 56, 56] |   1024  |  1605632  |
|        re_lu_1        |  [1, 256, 56, 56] |  [1, 256, 56, 56] |    0    |     0     |
|        conv2d_1       |  [1, 64, 56, 56]  |  [1, 256, 56, 56] |  16384  |  51380224 |
|     batch_norm2d_1    |  [1, 256, 56, 56] |  [1, 256, 56, 56] |   1024  |  1605632  |
|        conv2d_5       |  [1, 256, 56, 56] |  [1, 64, 56, 56]  |  16384  |  51380224 |
|     batch_norm2d_5    |  [1, 64, 56, 56]  |  [1, 64, 56, 56]  |   256   |   401408  |
|        conv2d_6       |  [1, 64, 56, 56]  |  [1, 64, 56, 56]  |  36864  | 115605504 |
|     batch_norm2d_6    |  [1, 64, 56, 56]  |  [1, 64, 56, 56]  |   256   |   401408  |
|        conv2d_7       |  [1, 64, 56, 56]  |  [1, 256, 56, 56] |  16384  |  51380224 |
|     batch_norm2d_7    |  [1, 256, 56, 56] |  [1, 256, 56, 56] |   1024  |  1605632  |
|        re_lu_2        |  [1, 256, 56, 56] |  [1, 256, 56, 56] |    0    |     0     |
|        conv2d_8       |  [1, 256, 56, 56] |  [1, 64, 56, 56]  |  16384  |  51380224 |
|     batch_norm2d_8    |  [1, 64, 56, 56]  |  [1, 64, 56, 56]  |   256   |   401408  |
|        conv2d_9       |  [1, 64, 56, 56]  |  [1, 64, 56, 56]  |  36864  | 115605504 |
|     batch_norm2d_9    |  [1, 64, 56, 56]  |  [1, 64, 56, 56]  |   256   |   401408  |
|       conv2d_10       |  [1, 64, 56, 56]  |  [1, 256, 56, 56] |  16384  |  51380224 |
|    batch_norm2d_10    |  [1, 256, 56, 56] |  [1, 256, 56, 56] |   1024  |  1605632  |
|        re_lu_3        |  [1, 256, 56, 56] |  [1, 256, 56, 56] |    0    |     0     |
|       conv2d_12       |  [1, 256, 56, 56] |  [1, 128, 56, 56] |  32768  | 102760448 |
|    batch_norm2d_12    |  [1, 128, 56, 56] |  [1, 128, 56, 56] |   512   |   802816  |
|       conv2d_13       |  [1, 128, 56, 56] |  [1, 128, 28, 28] |  147456 | 115605504 |
|    batch_norm2d_13    |  [1, 128, 28, 28] |  [1, 128, 28, 28] |   512   |   200704  |
|       conv2d_14       |  [1, 128, 28, 28] |  [1, 512, 28, 28] |  65536  |  51380224 |
|    batch_norm2d_14    |  [1, 512, 28, 28] |  [1, 512, 28, 28] |   2048  |   802816  |
|        re_lu_4        |  [1, 512, 28, 28] |  [1, 512, 28, 28] |    0    |     0     |
|       conv2d_11       |  [1, 256, 56, 56] |  [1, 512, 28, 28] |  131072 | 102760448 |
|    batch_norm2d_11    |  [1, 512, 28, 28] |  [1, 512, 28, 28] |   2048  |   802816  |
|       conv2d_15       |  [1, 512, 28, 28] |  [1, 128, 28, 28] |  65536  |  51380224 |
|    batch_norm2d_15    |  [1, 128, 28, 28] |  [1, 128, 28, 28] |   512   |   200704  |
|       conv2d_16       |  [1, 128, 28, 28] |  [1, 128, 28, 28] |  147456 | 115605504 |
|    batch_norm2d_16    |  [1, 128, 28, 28] |  [1, 128, 28, 28] |   512   |   200704  |
|       conv2d_17       |  [1, 128, 28, 28] |  [1, 512, 28, 28] |  65536  |  51380224 |
|    batch_norm2d_17    |  [1, 512, 28, 28] |  [1, 512, 28, 28] |   2048  |   802816  |
|        re_lu_5        |  [1, 512, 28, 28] |  [1, 512, 28, 28] |    0    |     0     |
|       conv2d_18       |  [1, 512, 28, 28] |  [1, 128, 28, 28] |  65536  |  51380224 |
|    batch_norm2d_18    |  [1, 128, 28, 28] |  [1, 128, 28, 28] |   512   |   200704  |
|       conv2d_19       |  [1, 128, 28, 28] |  [1, 128, 28, 28] |  147456 | 115605504 |
|    batch_norm2d_19    |  [1, 128, 28, 28] |  [1, 128, 28, 28] |   512   |   200704  |
|       conv2d_20       |  [1, 128, 28, 28] |  [1, 512, 28, 28] |  65536  |  51380224 |
|    batch_norm2d_20    |  [1, 512, 28, 28] |  [1, 512, 28, 28] |   2048  |   802816  |
|        re_lu_6        |  [1, 512, 28, 28] |  [1, 512, 28, 28] |    0    |     0     |
|       conv2d_21       |  [1, 512, 28, 28] |  [1, 128, 28, 28] |  65536  |  51380224 |
|    batch_norm2d_21    |  [1, 128, 28, 28] |  [1, 128, 28, 28] |   512   |   200704  |
|       conv2d_22       |  [1, 128, 28, 28] |  [1, 128, 28, 28] |  147456 | 115605504 |
|    batch_norm2d_22    |  [1, 128, 28, 28] |  [1, 128, 28, 28] |   512   |   200704  |
|       conv2d_23       |  [1, 128, 28, 28] |  [1, 512, 28, 28] |  65536  |  51380224 |
|    batch_norm2d_23    |  [1, 512, 28, 28] |  [1, 512, 28, 28] |   2048  |   802816  |
|        re_lu_7        |  [1, 512, 28, 28] |  [1, 512, 28, 28] |    0    |     0     |
|       conv2d_25       |  [1, 512, 28, 28] |  [1, 256, 28, 28] |  131072 | 102760448 |
|    batch_norm2d_25    |  [1, 256, 28, 28] |  [1, 256, 28, 28] |   1024  |   401408  |
|       conv2d_26       |  [1, 256, 28, 28] |  [1, 256, 14, 14] |  589824 | 115605504 |
|    batch_norm2d_26    |  [1, 256, 14, 14] |  [1, 256, 14, 14] |   1024  |   100352  |
|       conv2d_27       |  [1, 256, 14, 14] | [1, 1024, 14, 14] |  262144 |  51380224 |
|    batch_norm2d_27    | [1, 1024, 14, 14] | [1, 1024, 14, 14] |   4096  |   401408  |
|        re_lu_8        | [1, 1024, 14, 14] | [1, 1024, 14, 14] |    0    |     0     |
|       conv2d_24       |  [1, 512, 28, 28] | [1, 1024, 14, 14] |  524288 | 102760448 |
|    batch_norm2d_24    | [1, 1024, 14, 14] | [1, 1024, 14, 14] |   4096  |   401408  |
|       conv2d_28       | [1, 1024, 14, 14] |  [1, 256, 14, 14] |  262144 |  51380224 |
|    batch_norm2d_28    |  [1, 256, 14, 14] |  [1, 256, 14, 14] |   1024  |   100352  |
|       conv2d_29       |  [1, 256, 14, 14] |  [1, 256, 14, 14] |  589824 | 115605504 |
|    batch_norm2d_29    |  [1, 256, 14, 14] |  [1, 256, 14, 14] |   1024  |   100352  |
|       conv2d_30       |  [1, 256, 14, 14] | [1, 1024, 14, 14] |  262144 |  51380224 |
|    batch_norm2d_30    | [1, 1024, 14, 14] | [1, 1024, 14, 14] |   4096  |   401408  |
|        re_lu_9        | [1, 1024, 14, 14] | [1, 1024, 14, 14] |    0    |     0     |
|       conv2d_31       | [1, 1024, 14, 14] |  [1, 256, 14, 14] |  262144 |  51380224 |
|    batch_norm2d_31    |  [1, 256, 14, 14] |  [1, 256, 14, 14] |   1024  |   100352  |
|       conv2d_32       |  [1, 256, 14, 14] |  [1, 256, 14, 14] |  589824 | 115605504 |
|    batch_norm2d_32    |  [1, 256, 14, 14] |  [1, 256, 14, 14] |   1024  |   100352  |
|       conv2d_33       |  [1, 256, 14, 14] | [1, 1024, 14, 14] |  262144 |  51380224 |
|    batch_norm2d_33    | [1, 1024, 14, 14] | [1, 1024, 14, 14] |   4096  |   401408  |
|        re_lu_10       | [1, 1024, 14, 14] | [1, 1024, 14, 14] |    0    |     0     |
|       conv2d_34       | [1, 1024, 14, 14] |  [1, 256, 14, 14] |  262144 |  51380224 |
|    batch_norm2d_34    |  [1, 256, 14, 14] |  [1, 256, 14, 14] |   1024  |   100352  |
|       conv2d_35       |  [1, 256, 14, 14] |  [1, 256, 14, 14] |  589824 | 115605504 |
|    batch_norm2d_35    |  [1, 256, 14, 14] |  [1, 256, 14, 14] |   1024  |   100352  |
|       conv2d_36       |  [1, 256, 14, 14] | [1, 1024, 14, 14] |  262144 |  51380224 |
|    batch_norm2d_36    | [1, 1024, 14, 14] | [1, 1024, 14, 14] |   4096  |   401408  |
|        re_lu_11       | [1, 1024, 14, 14] | [1, 1024, 14, 14] |    0    |     0     |
|       conv2d_37       | [1, 1024, 14, 14] |  [1, 256, 14, 14] |  262144 |  51380224 |
|    batch_norm2d_37    |  [1, 256, 14, 14] |  [1, 256, 14, 14] |   1024  |   100352  |
|       conv2d_38       |  [1, 256, 14, 14] |  [1, 256, 14, 14] |  589824 | 115605504 |
|    batch_norm2d_38    |  [1, 256, 14, 14] |  [1, 256, 14, 14] |   1024  |   100352  |
|       conv2d_39       |  [1, 256, 14, 14] | [1, 1024, 14, 14] |  262144 |  51380224 |
|    batch_norm2d_39    | [1, 1024, 14, 14] | [1, 1024, 14, 14] |   4096  |   401408  |
|        re_lu_12       | [1, 1024, 14, 14] | [1, 1024, 14, 14] |    0    |     0     |
|       conv2d_40       | [1, 1024, 14, 14] |  [1, 256, 14, 14] |  262144 |  51380224 |
|    batch_norm2d_40    |  [1, 256, 14, 14] |  [1, 256, 14, 14] |   1024  |   100352  |
|       conv2d_41       |  [1, 256, 14, 14] |  [1, 256, 14, 14] |  589824 | 115605504 |
|    batch_norm2d_41    |  [1, 256, 14, 14] |  [1, 256, 14, 14] |   1024  |   100352  |
|       conv2d_42       |  [1, 256, 14, 14] | [1, 1024, 14, 14] |  262144 |  51380224 |
|    batch_norm2d_42    | [1, 1024, 14, 14] | [1, 1024, 14, 14] |   4096  |   401408  |
|        re_lu_13       | [1, 1024, 14, 14] | [1, 1024, 14, 14] |    0    |     0     |
|       conv2d_44       | [1, 1024, 14, 14] |  [1, 512, 14, 14] |  524288 | 102760448 |
|    batch_norm2d_44    |  [1, 512, 14, 14] |  [1, 512, 14, 14] |   2048  |   200704  |
|       conv2d_45       |  [1, 512, 14, 14] |   [1, 512, 7, 7]  | 2359296 | 115605504 |
|    batch_norm2d_45    |   [1, 512, 7, 7]  |   [1, 512, 7, 7]  |   2048  |   50176   |
|       conv2d_46       |   [1, 512, 7, 7]  |  [1, 2048, 7, 7]  | 1048576 |  51380224 |
|    batch_norm2d_46    |  [1, 2048, 7, 7]  |  [1, 2048, 7, 7]  |   8192  |   200704  |
|        re_lu_14       |  [1, 2048, 7, 7]  |  [1, 2048, 7, 7]  |    0    |     0     |
|       conv2d_43       | [1, 1024, 14, 14] |  [1, 2048, 7, 7]  | 2097152 | 102760448 |
|    batch_norm2d_43    |  [1, 2048, 7, 7]  |  [1, 2048, 7, 7]  |   8192  |   200704  |
|       conv2d_47       |  [1, 2048, 7, 7]  |   [1, 512, 7, 7]  | 1048576 |  51380224 |
|    batch_norm2d_47    |   [1, 512, 7, 7]  |   [1, 512, 7, 7]  |   2048  |   50176   |
|       conv2d_48       |   [1, 512, 7, 7]  |   [1, 512, 7, 7]  | 2359296 | 115605504 |
|    batch_norm2d_48    |   [1, 512, 7, 7]  |   [1, 512, 7, 7]  |   2048  |   50176   |
|       conv2d_49       |   [1, 512, 7, 7]  |  [1, 2048, 7, 7]  | 1048576 |  51380224 |
|    batch_norm2d_49    |  [1, 2048, 7, 7]  |  [1, 2048, 7, 7]  |   8192  |   200704  |
|        re_lu_15       |  [1, 2048, 7, 7]  |  [1, 2048, 7, 7]  |    0    |     0     |
|       conv2d_50       |  [1, 2048, 7, 7]  |   [1, 512, 7, 7]  | 1048576 |  51380224 |
|    batch_norm2d_50    |   [1, 512, 7, 7]  |   [1, 512, 7, 7]  |   2048  |   50176   |
|       conv2d_51       |   [1, 512, 7, 7]  |   [1, 512, 7, 7]  | 2359296 | 115605504 |
|    batch_norm2d_51    |   [1, 512, 7, 7]  |   [1, 512, 7, 7]  |   2048  |   50176   |
|       conv2d_52       |   [1, 512, 7, 7]  |  [1, 2048, 7, 7]  | 1048576 |  51380224 |
|    batch_norm2d_52    |  [1, 2048, 7, 7]  |  [1, 2048, 7, 7]  |   8192  |   200704  |
|        re_lu_16       |  [1, 2048, 7, 7]  |  [1, 2048, 7, 7]  |    0    |     0     |
| adaptive_avg_pool2d_0 |  [1, 2048, 7, 7]  |  [1, 2048, 1, 1]  |    0    |   102400  |
|        linear_0       |     [1, 2048]     |       [1, 5]      |  10245  |   10240   |
+-----------------------+-------------------+-------------------+---------+-----------+
Total Flops: -185490432     Total Params: 23571397
-185490432
2021-10-29 14:27:19
[training] epoch: 1, step: 1, loss: 1.9832218885421753, acc: 0.1875
[training] epoch: 1, step: 21, loss: 1.9314570426940918, acc: 0.375
[training] epoch: 1, step: 41, loss: 1.0471057891845703, acc: 0.625
[validation] epoch: 1, loss: 1.3536193304591708, acc: 0.44675926036304897
…
