…
列表完成！
<class 'paddle.nn.layer.conv.Conv2D'>'s flops has been counted
<class 'paddle.nn.layer.activation.ReLU'>'s flops has been counted
Cannot find suitable count function for <class 'paddle.nn.layer.pooling.MaxPool2D'>. Treat it as zero FLOPs.
<class 'paddle.nn.layer.common.Linear'>'s flops has been counted
+--------------+--------------------+--------------------+-----------+------------+
|  Layer Name  |    Input Shape     |    Output Shape    |   Params  |   Flops    |
+--------------+--------------------+--------------------+-----------+------------+
|   conv2d_0   |  [1, 3, 224, 224]  | [1, 64, 224, 224]  |    1792   |  89915392  |
|   re_lu_0    | [1, 64, 224, 224]  | [1, 64, 224, 224]  |     0     |     0      |
|   conv2d_1   | [1, 64, 224, 224]  | [1, 64, 224, 224]  |   36928   | 1852899328 |
|   re_lu_1    | [1, 64, 224, 224]  | [1, 64, 224, 224]  |     0     |     0      |
| max_pool2d_0 | [1, 64, 224, 224]  | [1, 64, 112, 112]  |     0     |     0      |
|   conv2d_2   | [1, 64, 112, 112]  | [1, 128, 112, 112] |   73856   | 926449664  |
|   re_lu_2    | [1, 128, 112, 112] | [1, 128, 112, 112] |     0     |     0      |
|   conv2d_3   | [1, 128, 112, 112] | [1, 128, 112, 112] |   147584  | 1851293696 |
|   re_lu_3    | [1, 128, 112, 112] | [1, 128, 112, 112] |     0     |     0      |
| max_pool2d_1 | [1, 128, 112, 112] |  [1, 128, 56, 56]  |     0     |     0      |
|   conv2d_4   |  [1, 128, 56, 56]  |  [1, 256, 56, 56]  |   295168  | 925646848  |
|   re_lu_4    |  [1, 256, 56, 56]  |  [1, 256, 56, 56]  |     0     |     0      |
|   conv2d_5   |  [1, 256, 56, 56]  |  [1, 256, 56, 56]  |   590080  | 1850490880 |
|   re_lu_5    |  [1, 256, 56, 56]  |  [1, 256, 56, 56]  |     0     |     0      |
|   conv2d_6   |  [1, 256, 56, 56]  |  [1, 256, 56, 56]  |   590080  | 1850490880 |
|   re_lu_6    |  [1, 256, 56, 56]  |  [1, 256, 56, 56]  |     0     |     0      |
| max_pool2d_2 |  [1, 256, 56, 56]  |  [1, 256, 28, 28]  |     0     |     0      |
|   conv2d_7   |  [1, 256, 28, 28]  |  [1, 512, 28, 28]  |  1180160  | 925245440  |
|   re_lu_7    |  [1, 512, 28, 28]  |  [1, 512, 28, 28]  |     0     |     0      |
|   conv2d_8   |  [1, 512, 28, 28]  |  [1, 512, 28, 28]  |  2359808  | 1850089472 |
|   re_lu_8    |  [1, 512, 28, 28]  |  [1, 512, 28, 28]  |     0     |     0      |
|   conv2d_9   |  [1, 512, 28, 28]  |  [1, 512, 28, 28]  |  2359808  | 1850089472 |
|   re_lu_9    |  [1, 512, 28, 28]  |  [1, 512, 28, 28]  |     0     |     0      |
| max_pool2d_3 |  [1, 512, 28, 28]  |  [1, 512, 14, 14]  |     0     |     0      |
|  conv2d_10   |  [1, 512, 14, 14]  |  [1, 512, 14, 14]  |  2359808  | 462522368  |
|   re_lu_10   |  [1, 512, 14, 14]  |  [1, 512, 14, 14]  |     0     |     0      |
|  conv2d_11   |  [1, 512, 14, 14]  |  [1, 512, 14, 14]  |  2359808  | 462522368  |
|   re_lu_11   |  [1, 512, 14, 14]  |  [1, 512, 14, 14]  |     0     |     0      |
|  conv2d_12   |  [1, 512, 14, 14]  |  [1, 512, 14, 14]  |  2359808  | 462522368  |
|   re_lu_12   |  [1, 512, 14, 14]  |  [1, 512, 14, 14]  |     0     |     0      |
| max_pool2d_4 |  [1, 512, 14, 14]  |   [1, 512, 7, 7]   |     0     |     0      |
|   linear_0   |     [1, 25088]     |     [1, 4096]      | 102764544 | 102760448  |
|   linear_1   |     [1, 4096]      |     [1, 4096]      |  16781312 |  16777216  |
|   linear_2   |     [1, 4096]      |       [1, 5]       |   20485   |   20480    |
+--------------+--------------------+--------------------+-----------+------------+
Total Flops: -1700132864     Total Params: 134281029
-1700132864
2021-10-29 11:49:57
[training] epoch: 1, step: 1, loss: 2.772038459777832, acc: 0.0
[training] epoch: 1, step: 21, loss: 1.470440149307251, acc: 0.25
[training] epoch: 1, step: 41, loss: 1.7593791484832764, acc: 0.1875
[validation] epoch: 1, loss: 1.1827780538135104, acc: 0.48842592702971566
…
